…
└── lm_head     |                |           |                 |            |                
 └── decoder    | 69.600ms       | 184.523ms | 108.968ms       | 319.657ms  | 512   


==========================================================================================
Layer (type:depth-idx)                   Output Shape              Param #
==========================================================================================
GPT2LMHeadModel                          --                        --
├─GPT2Model: 1                           --                        --
│    └─ModuleList: 2-1                   --                        --
├─GPT2Model: 1-1                         [1, 64, 768]              --
│    └─Embedding: 2-2                    [1, 64, 768]              38,597,376
│    └─Embedding: 2-3                    [1, 64, 768]              786,432
│    └─ModuleList: 2-1                   --                        --
│    │    └─Block: 3-1                   [1, 64, 768]              7,087,872
│    │    └─Block: 3-2                   [1, 64, 768]              7,087,872
│    │    └─Block: 3-3                   [1, 64, 768]              7,087,872
│    │    └─Block: 3-4                   [1, 64, 768]              7,087,872
│    │    └─Block: 3-5                   [1, 64, 768]              7,087,872
│    │    └─Block: 3-6                   [1, 64, 768]              7,087,872
│    │    └─Block: 3-7                   [1, 64, 768]              7,087,872
│    │    └─Block: 3-8                   [1, 64, 768]              7,087,872
│    │    └─Block: 3-9                   [1, 64, 768]              7,087,872
│    │    └─Block: 3-10                  [1, 64, 768]              7,087,872
│    │    └─Block: 3-11                  [1, 64, 768]              7,087,872
│    │    └─Block: 3-12                  [1, 64, 768]              7,087,872
│    └─LayerNorm: 2-4                    [1, 64, 768]              1,536
├─GPT2LMHead: 1-2                        [1, 64, 50257]            --
│    └─Linear: 2-5                       [1, 64, 50257]            38,597,376
==========================================================================================
Total params: 163,037,184
Trainable params: 163,037,184
Non-trainable params: 0
Total mult-adds (G): 163.34
==========================================================================================
Input size (MB): 0.00
Forward/backward pass size (MB): 78.82
Params size (MB): 652.15
Estimated Total Size (MB): 730.97
…
